…
ecution":{"iopub.status.busy":"2024-08-10T06:48:07.011033Z","iopub.execute_input":"2024-08-10T06:48:07.011365Z","iopub.status.idle":"2024-08-10T06:48:09.812783Z","shell.execute_reply.started":"2024-08-10T06:48:07.011326Z","shell.execute_reply":"2024-08-10T06:48:09.811806Z"},"trusted":true},"execution_count":4,"outputs":[{"name":"stdout","text":"Model: \"sequential\"\n_________________________________________________________________\n Layer (type)                Output Shape              Param #   \n=================================================================\n conv2d (Conv2D)             (None, 224, 224, 64)      1792      \n                                                                 \n batch_normalization (BatchN  (None, 224, 224, 64)     256       \n ormalization)                                                   \n                                                                 \n activation (Activation)     (None, 224, 224, 64)      0         \n                                                                 \n conv2d_1 (Conv2D)           (None, 224, 224, 128)     73856     \n                                                                 \n batch_normalization_1 (Batc  (None, 224, 224, 128)    512       \n hNormalization)                                                 \n                                                                 \n activation_1 (Activation)   (None, 224, 224, 128)     0         \n                                                                 \n max_pooling2d (MaxPooling2D  (None, 74, 74, 128)      0         \n )                                                               \n                                                                 \n conv2d_2 (Conv2D)           (None, 74, 74, 128)       147584    \n                                                                 \n batch_normalization_2 (Batc  (None, 74, 74, 128)      512       \n hNormalization)                                                 \n                                                                 \n activation_2 (Activation)   (None, 74, 74, 128)       0         \n                                                                 \n conv2d_3 (Conv2D)           (None, 74, 74, 128)       147584    \n                                                                 \n batch_normalization_3 (Batc  (None, 74, 74, 128)      512       \n hNormalization)                                                 \n                                                                 \n activation_3 (Activation)   (None, 74, 74, 128)       0         \n                                                                 \n conv2d_4 (Conv2D)           (None, 74, 74, 256)       295168    \n                                                                 \n batch_normalization_4 (Batc  (None, 74, 74, 256)      1024      \n hNormalization)                                                 \n                                                                 \n activation_4 (Activation)   (None, 74, 74, 256)       0         \n                                                                 \n max_pooling2d_1 (MaxPooling  (None, 24, 24, 256)      0         \n 2D)                                                             \n                                                                 \n conv2d_5 (Conv2D)           (None, 24, 24, 512)       1180160   \n                                                                 \n batch_normalization_5 (Batc  (None, 24, 24, 512)      2048      \n hNormalization)                                                 \n                                                                 \n activation_5 (Activation)   (None, 24, 24, 512)       0         \n                                                                 \n max_pooling2d_2 (MaxPooling  (None, 8, 8, 512)        0         \n 2D)                                                             \n                                                                 \n conv2d_6 (Conv2D)           (None, 8, 8, 512)         2359808   \n                                                                 \n batch_normalization_6 (Batc  (None, 8, 8, 512)        2048      \n hNormalization)                                                 \n                                                                 \n activation_6 (Activation)   (None, 8, 8, 512)         0         \n                                                                 \n conv2d_7 (Conv2D)           (None, 8, 8, 512)         2359808   \n                                                                 \n batch_normalization_7 (Batc  (None, 8, 8, 512)        2048      \n hNormalization)                                                 \n                                                                 \n activation_7 (Activation)   (None, 8, 8, 512)         0         \n                                                                 \n max_pooling2d_3 (MaxPooling  (None, 2, 2, 512)        0         \n 2D)                                                             \n                                                                 \n flatten (Flatten)           (None, 2048)              0         \n                                                                 \n dense (Dense)               (None, 2048)              4196352   \n                                                                 \n dropout (Dropout)           (None, 2048)              0         \n                                                                 \n dense_1 (Dense)             (None, 2048)              4196352   \n                                                                 \n dropout_1 (Dropout)         (None, 2048)              0         \n                                                                 \n dense_2 (Dense)             (None, 30)                61470     \n                                                                 \n=================================================================\nTotal params: 15,028,894\nTrainable params: 15,024,414\nNon-trainable params: 4,480\n_________________________________________________________________\n","output_type":"stream"}]},{"cell_type":"code","source":"CNN.compile(optimizer=tf.keras.optimizers.Adam(),
…
